Nhi/model1.pth (torch, 37519 bytes, 6 tensors)

weight f4 [64, 8]
00000000: 2133 a9c0 0347 ad3f dd8c ed3d 99a2 6dbe
00000010: 96a2 e9bd b7e0 8f3f 9b9e b3bf 05fa 0cbf
00000020: e9c1 403d 1170 1cbd 0e4f e63e 5561 7abe
00000030: ca73 cb3f 250c 5f3d 9630 42bd 64b0 03bd
00000040: 5abd cb3d 3265 9a3d 4f5f 2abd 9c3d 54bc
00000050: f2b1 0b3e 2847 8b3c 4382 a73f 7041 11bf
00000060: 0df8 5940 ed77 0640 7797 9ebb a36c 02bd
00000070: f812 79bd 6770 17bc f8bb a43e 0b55 b0bc
00000080: 6ecb e2c0 abb6 7640 add7 a43d ae01 3c3d
00000090: 94f1 b13d 6fd0 613e 7f64 c13e fba4 9b3c
000000a0: 363f 723d ced3 47be a3cc 533d a20a 8f3d
000000b0: 861f 3a3e 5d8e de3f 7554 a03d bede 0b3f
000000c0: 5fba fbbb 7617 2fbc 302a 99bf a4fa 44bd
000000d0: a5c8 02be ddff 123c c89e e93c 8580 a33d
000000e0: 1353 3cbf 49d2 bcbf 4aef c7be d38e 4b3e
000000f0: 72de a1bc 6ab8 d43f 3e05 903f 810f 9cbe
00000100: 261d e0bd 989d 8abd 59fb d5bd 0c18 e13e
00000110: 0a6d 023f 8c83 1e40 10d5 c3bd b806 ac3e
00000120: ca98 29bd 859b 6cbc 5908 8f3d efd8 68bf
00000130: e456 a8bf 01e6 cbbd 7fb7 113d 2cbf 993c
00000140: aa26 01c0 b4f7 00c0 c7d5 f43c 2534 67bd
00000150: ff42 a3bc 9754 8fbb 30a2 c9bd c2d0 a6bc
00000160: 3e61 f33c 8230 f8bd 96a5 f1bd e88d 4e3f
00000170: a9dc 8fbf 2474 d43d e389 d9bd b8b2 08be
00000180: 168f 4740 5520 99bf ed34 b53c 2edf 9abc
00000190: 7364 983b f5d9 9e3d 746c 0bbe 54d4 00bd
000001a0: 22a9 d840 19c9 9440 b9a1 be3d f6b9 b6bd
000001b0: 6023 04bd cf89 afbd 6180 60be 564d 503e
000001c0: c733 38c0 1af6 5140 72f7 0d3d 6a5b e3bc
000001d0: e878 363c 040b 42bd 7c0e 51bc 8772 873e
000001e0: 08b3 6ebd 01a8 67bd 92b5 813d 261e c73d
000001f0: d9de 9ebd 8dc6 94bf eac1 89bd 7fc0 0a3e
00000200: ee3c 0bc0 159f 4940 f656 34be 7c25 b3be
00000210: a1d0 73be d8e3 c33e 9946 21bd b9d1 803f
00000220: 74a3 e23f 6497 9540 88ec b93e d6fc 05be
00000230: d484 0e3b e0fa 7e3f e6c9 e4bf 1093 663e
00000240: 141a 08c0 05ec 00c1 9894 ef3c 958a b3bd
00000250: 9b56 52bd eaac 7b3b 33fb 9dbd c6df 8a3d
00000260: 570c c53d 1b6d ae37 e4dd 933d 041f 9b3d
00000270: 0900 663b 2099 0dbe 68a7 893f b960 4d3f
00000280: f1ab cec0 0bf5 8ec0 12a8 103d f608 b83c
00000290: 63ce debd dd0b 723d e96e ca3e b068 e43e
000002a0: 49e6 9440 3483 8840 4e58 a3bd e13d f53d
000002b0: 6592 9d3d 8982 07bd fcc7 0a3e 4bea b3bd
000002c0: eb31 0fbf d3c2 81c0 292f 4abd 1b90 053d
000002d0: 328b 71bc 096a fc3c c856 60bd aa6e c8bd
000002e0: f768 a33d 2f75 98bd deb4 8b3f b975 453e
000002f0: 7f37 9abe 0e63 913d f5ca ab3c 1bdb 85bd
00000300: 3c7f 0d40 43b8 1541 b43e 86bd 692b 93bd
00000310: fe49 123d 8b25 aebd 5961 8c3e 4ce8 73be
00000320: 3fc0 1e40 9206 1340 52af 243c fe56 1ebe
00000330: ccb1 f0bd e92e 083f 9875 a5be a8de be3f
00000340: 782d a5be 0923 27c1 8d63 173f e1d3 ccbe
00000350: 27cd f3be dea3 9abe 20ff 88bf ba19 ed3e
00000360: 4095 76bc 5358 003e fbd4 0f3e ce16 b53c
00000370: 229f 133e 0187 e4bf 2167 70bf 7c84 133f
00000380: cbc3 8b3c 05ff 0fbe 78ec 61bb f7f9 7abd
00000390: 2cac 16bc d536 c03e 4f8e aabf dd34 673f
000003a0: 3e38 4b3e 596d 44be 842e e23e 140d 573f
000003b0: ba4c e7bf cf38 5c3e d7a8 72bf 5d51 abbe
000003c0: c474 803e a334 17c1 16fb 1ebd 5013 f5bd
000003d0: cee3 cbbd 6353 a8bd 034d 4ebd fffb 5c3e
000003e0: 3800 263c 228a 0abd d862 90bd b3ea bf3f
000003f0: 7d98 64bc ab38 67bd cca1 b93c e75e 883d
-5.2874913 1.3537296 0.11599133 -0.23206557 -0.11407964 1.1240453 -1.4032778 -0.55069
0.047059927 -0.038192812 0.4498219 -0.24451192 1.5894711 0.05445494 -0.047409616 -0.03215064
0.09948225 0.07538833 -0.0415948 -0.012954142 0.136421 0.017001703 1.3086628 -0.56740475
3.4057648 2.1010697 -0.0048398334 -0.031841885 -0.060809106 -0.009243107 0.3217466 -0.021524927
-7.0873327 3.8548992 0.080489494 0.04590004 0.086886555 0.22052167 0.37771985 0.018999567
0.059142314 -0.19514391 0.05170883 0.0698445 0.18176088 1.7387196 0.07828609 0.5463675
-0.0076821293 -0.010686746 -1.1966 -0.048090592 -0.12771852 0.008972135 0.028518096 0.079834975
-0.7356426 -1.4751674 -0.3904975 0.19878702 -0.01975939 1.6618779 1.12516 -0.3048058
-0.109430596 -0.0676834 -0.104483314 0.4396366 0.5094763 2.476779 -0.09562123 0.33598876
-0.041405477 -0.014441376 0.06984014 -0.90956014 -1.3151517 -0.09955979 0.035575386 0.018767916
-2.0179849 -2.0151186 0.029887093 -0.056446213 -0.019929407 -0.0043740976 -0.09845388 -0.020363215
0.029709455 -0.12118627 -0.11799161 0.8068528 -1.1239215 0.103737146 -0.10622003 -0.13349426
3.1181083 -1.1962992 0.022119964 -0.018905248 0.0046506464 0.07756416 -0.1361559 -0.031452492
6.770646 4.649548 0.0930819 -0.08922188 -0.0322603 -0.08571207 -0.21923973 0.20342001
-2.8781602 3.2806458 0.03465981 -0.02775355 0.011137225 -0.047373787 -0.012759801 0.26454565
-0.058276206 -0.056556705 0.0633346 0.09722547 -0.077573486 -1.1623093 -0.06726439 0.13549994
-2.1755939 3.1503346 -0.17611298 -0.34989536 -0.23810054 0.38259768 -0.039373968 1.0064002
1.7706132 4.6747303 0.36313272 -0.1308473 0.0021746652 0.99601555 -1.7874115 0.22517037
-2.1265917 -8.057622 0.02924566 -0.08766667 -0.051352125 0.0038402625 -0.07713928 0.06780963
0.09621494 2.0793223e-05 0.07220057 0.07574275 0.0035095236 -0.13827944 1.0754213 0.8022571
-6.458489 -4.4674125 0.035316534 0.02246521 -0.10879209 0.059093345 0.39537743 0.4461112
4.653111 4.266016 -0.07975827 0.11974693 0.07693938 -0.033083472 0.1355285 -0.08784922
-0.55935544 -4.0550323 -0.04936138 0.032608133 -0.014742659 0.03081228 -0.05477026 -0.097867325
0.07979005 -0.07444226 1.0914571 0.19283189 -0.30120465 0.07098971 0.0209708 -0.06535932
2.2108908 9.357486 -0.065549284 -0.07186014 0.035715096 -0.085032545 0.2741802 -0.23819083
2.4804838 2.297276 0.010051565 -0.15462872 -0.11752662 0.5319658 -0.3231628 1.4911699
-0.32261252 -10.4460535 0.5913628 -0.400054 -0.47617456 -0.30203146 -1.0702858 0.4630869
-0.015050232 0.12533693 0.1404609 0.0221056 0.14416173 -1.78537 -0.9390736 0.5762403
0.017061135 -0.14062126 -0.0034473222 -0.06127354 -0.009196322 0.37541834 -1.3324679 0.9031504
0.19845673 -0.19182338 0.44176114 0.8400433 -1.807029 0.21506046 -0.9478888 -0.33460513
0.25089085 -9.450351 -0.038813673 -0.11966574 -0.0995556 -0.0821903 -0.050366413 0.21580504
0.010131888 -0.03382314 -0.07050103 1.49935 -0.013952372 -0.056450527 0.022660159 0.06658726

bias f4 [64]
00000000: f5ad fcc0 e214 84bd 5a34 ed3d 8ab4 c9bd
00000010: abf5 ddc0 16c1 88bf 49f6 88bd ed0d 80c0
00000020: d8bc b6c0 d5d9 0dbe 7904 323f 9a1e a4be
00000030: 3623 55bd ae61 34c1 0638 bcbe 8e9c 043f
00000040: ebd0 9ac0 12cb 1bc1 f90d a6c0 d2c2 f93c
00000050: 4c44 2fc1 aa5b a7c0 b476 4a3e 4b50 89be
00000060: b1c1 87c1 efc0 89c0 abf4 90c1 e7b3 8abf
00000070: a749 4cbd 8c6f afc0 beb9 10c1 db56 fbbd
00000080: 6fb9 a1bd bdc2 04c1 3635 c5bf dcbb 0bbf
00000090: 9667 a4c0 292f 05bf 522c 6fc0 a97b 63c0
000000a0: ecff 84c1 23a6 adc0 a67e 38c0 c8a3 28c0
000000b0: e89f 96c0 ec2e 16c0 0558 b1bf 7c26 86c0
000000c0: 1802 4cc0 378c 2ec1 345f edc0 5369 41c1
000000d0: a115 9dc0 77de bfbe 693c 28c1 d713 d8c0
000000e0: 1cd0 0cc0 9107 88c0 59c6 73c1 2b15 48c0
000000f0: 5298 93c0 a6c0 2bc0 f85e a3c0 a4de e9c0
-7.896235 -0.064492956 0.11582251 -0.09848888 -6.936239 -1.0683925 -0.066876 -4.0017
-5.710552 -0.13852628 0.69538075 -0.32054597 -0.052035533 -11.273848 -0.36761492 0.51801383
-4.8380027 -9.737078 -5.1892056 0.030488405 -10.954174 -5.2299395 0.19771844 -0.2681907
-16.969576 -4.3048015 -18.119467 -1.0836152 -0.049874928 -5.4823666 -9.045347 -0.12272426
-0.07896697 -8.297544 -1.5406864 -0.54583526 -5.137645 -0.52025086 -3.73708 -3.5544226
-16.624962 -5.4265304 -2.88273 -2.6349964 -4.70702 -2.346614 -1.3854986 -4.192198
-3.1876278 -10.909232 -7.4178715 -12.088214 -4.9088902 -0.37474415 -10.514749 -6.752422
-2.200202 -4.2509236 -15.235925 -3.126292 -4.612344 -2.6836333 -5.105343 -7.308428

weight f4 [64, 64]
00000000: 0b57 0e3f 9b38 99be 69ca 843e 5463 10c0
00000010: 7cc8 86bf c2e5 a53d 4f39 b1bd a5e7 4ebf
00000020: 8179 353f 3f0c 5bbd 04a6 123f 3f8b d0bd
00000030: 74fb 3f40 0283 67c0 d723 39bf 5522 303f
00000040: 2001 09c1 bc76 03bf 7d9f 073f 4a39 08bf
00000050: bccf f2bf 2df4 afc1 5ec2 0940 5d13 7d3e
00000060: 1713 9fbf 5cdf fa3c f0f9 24c0 8e4a 1c3e
00000070: 2ed4 07bf df43 06bf 3da6 3fc0 d6b6 4ebe
00000080: db8d d03e 53df 843f 9497 14bf 3948 4abc
00000090: 8ff7 49bf 36b5 5abd d8af 003e 612e bebe
000000a0: 7cc0 933f ae5f 553e ba95 9abe 12f7 8e3e
000000b0: a895 d4be ff00 493f 4572 11bf d7f7 873e
000000c0: d3ab 783f 094b 45bd a9bb 55bf fcef 4dbf
000000d0: 42da 1a3f 3cce a43e 9841 1ebe 12bf 1bbf
000000e0: 1f8d 553f dccb 04c1 6c49 2ac0 1f82 9c3d
000000f0: ff02 1cbf 7553 6abe bc5b aa3e 112a 213e
00000100: af96 8b3f 70ac adbe c938 9e3e f599 07c2
00000110: dff5 cf3e 97d8 243f de0a 29be ed62 0c3f
00000120: 3a4b b63e c62e 0bbf 8d8c 4abe 7795 0cbf
00000130: ee33 46c0 a06e 66c0 f9ae 93c1 d8bc 193e
00000140: 07fc f140 0a89 973e 6ae1 39bf 3c77 0740
00000150: e80e af40 da90 d7c0 a39e 773f 3aae 833b
00000160: edcc fdbd aa46 97c0 ff4e 35c0 246c c33e
00000170: c442 59be a483 243f bef3 f53f 435d 20bb
00000180: 8e2f 8d3e 33c4 98bf 0ee0 8b3f 7c1a 42bf
00000190: 2988 9a3e 8c75 453e 3dd5 f1bf 4992 32bf
000001a0: f6bd ccbf ff6f 1ebf 7445 2b3f c85c 003f
000001b0: a948 8ebf bb3e 2abf 214b 2abf b473 ba3e
000001c0: f02b 76bf f848 b1bd ff4e ae3f 20d2 c23d
000001d0: 2e3a 06bf 4953 13be ca48 0ac1 1b8e 833f
000001e0: f1a9 50c0 493a eebf de04 b3bf 0945 76bd
000001f0: 761f 46c0 e4bb 113f 3dd9 48be 404d b5be
00000200: 374d 22bf 38c8 43c0 a7cb 05c0 31c8 b03f
00000210: 02dd cb3f 16a8 8fbf 61fc d3bf ed38 46bf
00000220: 33c0 b9bf 5085 87c0 a2fa 08bf d434 27c0
00000230: 4b39 16bf 019b 0340 03ff 813f 1f30 81c0
00000240: bbcf eb3f 6e4d 9d3e be7c fb3e 44da 2740
00000250: fbec 6a3f 571e 62bf c23c b93e 0749 e9bf
00000260: 5dd8 2d40 5e5f 2b3f 23c4 ccc0 b1ec 843f
00000270: 8e53 873f bff9 203f ccd3 cfbe 47d8 57c0
00000280: 5e9a 77c0 d91b f7c0 c1a7 3bbf fbbc 8d3d
00000290: 70c2 683e 44a7 a7c0 22f5 e8c0 7e0a 2140
000002a0: e3b1 36c0 a124 f8c0 b201 e73f 6188 f1bf
000002b0: 7e0a f1bf dc7a 66be 48e9 7abf 52dc 03c0
000002c0: 4f01 613f 113d d03f 86d3 a2c0 cceb 383f
000002d0: 08a6 e3c0 a742 33c0 dfbc 72bf 7815 0cbf
000002e0: da6f 133b 3c83 c4bf e2e5 dd3d 4dd3 0bc0
000002f0: 8992 25c0 ebff 533f 90a0 e83f c0a8 5fc0
00000300: 8a64 43c0 372d 86bc 9333 05bf 5f3c 6b3e
00000310: cff5 5e3f 2ca1 8dbd 4000 8c3d fd97 6b3f
00000320: 7b9a 96be 2d3e 07bd 400a a4c1 87dc 82bd
00000330: 3138 34bf 70d2 d23f 8d38 9b3d c635 cd3e
00000340: ddad 783f 784e 46be d369 18c0 4c74 0d3f
00000350: c1c0 7240 15be 3c3f 161c b3c1 dbb1 de3e
00000360: 3796 8abe 370c 4e3e 1701 8340 136f 00bf
00000370: d78b 9f3e 17f1 073f 64e1 36c0 dcaa 3c3d
00000380: 188d 53bd 9fe0 153e 46d4 4e3f 14ed f0be
00000390: 13a0 e43e 0ee8 053f b292 2d3f 7296 833e
000003a0: 57ca 28c0 89fe f53d 6694 bf3e 1581 263f
000003b0: 2e32 6fbe f903 49be cebc 2abe 6d36 02be
000003c0: 90d0 253e 1480 fcc0 7f71 d1be 3bec 093f
000003d0: 1c48 e43d dece 13bf 9be1 5d40 e82e 51c0
000003e0: db76 2ec0 59ae 38bf 549d e3bf f301 3cbd
000003f0: 58c9 6cc0 d408 d4bf 9262 e23d 57ca 18be
0.5560157 -0.29926 0.25935677 -2.2560625 -1.0529933 0.081004634 -0.08653509 -0.8082221
0.70888525 -0.053478476 0.5728457 -0.10182809 2.9997225 -3.617371 -0.7232031 0.68802387
-8.562775 -0.5135305 0.52977735 -0.53212416 -1.8969646 -21.994226 2.1524882 0.24714418
-1.2427701 0.030624084 -2.577755 0.15262815 -0.53058136 -0.52447313 -2.9945214 -0.20186934
0.40733227 1.0380653 -0.5804379 -0.012346321 -0.7889337 -0.053395472 0.12567079 -0.3714476
1.1543117 0.2083728 -0.30192357 0.27922875 -0.4152043 0.78517145 -0.56814986 0.26556274
0.9713718 -0.048167262 -0.8348947 -0.8044431 0.60489285 0.32188594 -0.1545471 -0.60838425
0.8341846 -8.29977 -2.6607313 0.07642006 -0.6094207 -0.22883399 0.33273113 0.15738703
1.090536 -0.33920622 0.309027 -33.90035 0.40617272 0.6439299 -0.16508052 0.5483845
0.35604268 -0.54368246 -0.19780178 -0.54915565 -3.0969195 -3.600502 -18.460436 0.15013444
7.562015 0.2959674 -0.7260958 2.1166525 5.4705696 -6.736432 0.96726435 0.004018572
-0.12392602 -4.727376 -2.8329465 0.38168442 -0.21216875 0.6426337 1.9215009 -0.002446965
0.27575344 -1.1934875 1.0927751 -0.7582166 0.30182007 0.19283122 -1.88932 -0.69754463
-1.5995471 -0.6188964 0.6690285 0.5014157 -1.1115924 -0.6650197 -0.6652089 0.364164
-0.96160793 -0.08656496 1.3617858 0.095127344 -0.52432525 -0.1438724 -8.642771 1.0277742
-3.2603724 -1.8611537 -1.398586 -0.06012443 -3.0956702 0.56927323 -0.1961412 -0.354105
-0.6339907 -3.0590954 -2.090555 1.3811094 1.5926821 -1.1223171 -1.6561395 -0.7743061
-1.451178 -4.2350235 -0.53507435 -2.6125994 -0.5868117 2.0563357 1.0155948 -4.037124
1.8422769 0.30723137 0.49118608 2.6226969 0.91767853 -0.88327545 0.36179167 -1.8225411
2.7163308 0.66942394 -6.3989425 1.0384732 1.0572374 0.6288108 -0.40591276 -3.3725755
-3.8687968 -7.7221494 -0.7330285 0.06920811 0.22730422 -5.239168 -7.2799234 2.5162654
-2.8546073 -7.7544713 1.8047392 -1.8869745 -1.8831327 -0.22507805 -0.9801221 -2.0603223
0.8789262 1.6268636 -5.0883207 0.722348 -7.1140175 -2.8009431 -0.94819444 -0.5472026
0.0022497089 -1.535255 0.10834862 -2.1847718 -2.5870688 0.82812375 1.8174 -3.4946747
-3.0530114 -0.016378982 -0.5203182 0.22972248 0.87093824 -0.06915507 0.06835985 0.9202879
-0.29414734 -0.03301828 -20.505005 -0.063897185 -0.7039824 1.647047 0.075791456 0.40080088
0.97140294 -0.19365871 -2.381459 0.5525558 3.7930148 0.7372754 -22.388714 0.43495068
-0.2706773 0.20121847 4.093883 -0.50169486 0.31161377 0.5310225 -2.8575068 0.04606138
-0.05164823 0.14636467 0.80792654 -0.47055876 0.44653377 0.5230721 0.67801964 0.25700718
-2.6373498 0.12011439 0.37417907 0.65040714 -0.23358986 -0.19630422 -0.16673586 -0.12716074
0.16192842 -7.8906345 -0.40906903 0.53876084 0.11146566 -0.5773753 3.4668949 -3.268488
-2.7260044 -0.72141033 -1.7782388 -0.045900296 -3.699789 -1.6565194 0.11053957 -0.14920937

bias f4 [64]
00000000: b66e 23c1 3ad6 0a3e 7cf1 8d3f b194 f83f
00000010: cb5f 62c0 1e20 0abf ca21 ccbf a33b 2ec1
00000020: e872 c4be 9813 0bbf 2260 dbbd 171f 87c1
00000030: 6ed5 70be e239 3d40 6617 33c0 2607 f2bf
00000040: 8331 d9c0 07aa c1c0 f634 c0be 6df3 ef3f
00000050: f4db e33f 4b5c 9940 e389 9ec0 db81 9440
00000060: b31e 863e 22ee 68bf 96c4 fc3e 167f 7ec0
00000070: 940e 1e40 1b2e b7c1 416d b640 8a3d a7be
00000080: acea 02c0 69da 0bc0 877e ffc0 3448 eac1
00000090: 9af5 47c1 419f b1bf ff24 1241 8c08 1840
000000a0: 3189 68bf 9c7f f940 8344 07c0 411e aa3f
000000b0: 92d0 6f3f 8e79 18c0 0d0c 833f c603 30c0
000000c0: a625 a83f 03e5 86c1 6d67 70bf 79d7 babf
000000d0: c2f2 b6bf ecc4 acbe 09ff 64bc e394 c2be
000000e0: 9166 02c1 81a0 58c0 657d b1c0 6952 04bf
000000f0: 9e50 46c1 ca13 b340 bb41 3940 5536 013f
-10.214529 0.13558283 1.108932 1.9420377 -3.5370967 -0.53955257 -1.5947812 -10.88956
-0.38368917 -0.5432677 -0.10711695 -16.89018 -0.23518917 2.956658 -2.7983031 -1.8908432
-6.787294 -6.0520053 -0.37540406 1.8746163 1.7801499 4.792516 -4.954332 4.6408515
0.26195297 -0.9098836 0.49368733 -3.9765067 2.4696398 -22.897512 5.7008367 -0.32664138
-2.0455732 -2.1852057 -7.984195 -29.285255 -12.497461 -1.3876725 9.134032 2.3755217
-0.9083434 7.7968273 -2.1135566 1.3290483 0.9367763 -2.382419 1.0238053 -2.7502303
1.3136489 -16.861822 -0.93907815 -1.4597007 -1.4292834 -0.3374399 -0.013976821 -0.38004217
-8.150041 -3.3847964 -5.546557 -0.5168825 -12.394682 5.5961657 2.8946369 0.5047353

weight f4 [60, 64]
00000000: aa1a bec2 3bad 10c0 0167 20c0 54a7 88bd
00000010: 0785 af3e 3afc d3be 836e 7ebf a1db eac2
00000020: 49f7 99bc 21aa 03c0 c751 d2bd 5d0f bbc2
00000030: 8aa9 09be 074a 2bc0 a1dd 7ac0 95f6 1bc0
00000040: 895a dc3b 2013 a4bf 9245 773d 915e 6dc0
00000050: dcbf 24c0 d0ed 81c0 c2aa adbf 7712 9ebe
00000060: 5785 dbbf c5ef 6cbf 14b7 8bbf 09c6 82bf
00000070: 377e 74bf 950f c5be fc92 8cbf 2ccf 14be
00000080: f5e9 71bf f7af b6bf 070a 0ac0 eb7c 8dc1
00000090: 078b 22c0 a54d 93bf 425f afbf e616 f4bf
000000a0: 91ef d1bf 751e 29c0 bd64 babf 7a1b d2bf
000000b0: a3ef 9cbf cef4 d7bf cdda 6ebf df31 19c0
000000c0: 5dba cabe 7b07 f3c2 fc39 b9bf 9924 fbbe
000000d0: d1b4 9abf 9d7a 7cbe e890 8a3d 7b27 c13d
000000e0: 2cb8 33c0 6861 b2bf 3e2f 953d a373 b4be
000000f0: 1803 7ac2 260c c7bf 5e9a bcbf 4ed3 d0bf
00000100: fd97 1dc1 e684 4fc3 84ff 1fc0 56c0 8f3e
00000110: fd7c 0dbf 91a0 8cbe 7065 80bf e9c3 bec2
00000120: 360d 78be e162 82bf 1369 373e 1106 46c2
00000130: 9e74 af3d 9e73 ecbf c89d 67c0 f037 e6bf
00000140: bfd5 683e 6793 e1bf 14b5 03bd c990 28c0
00000150: 8d46 47c0 a7d6 96bf dcc8 0bbf c074 46bf
00000160: 800b d8bf db3a 7abf cb3b 8cbf 16fa 2dbf
00000170: d67a 64bf 0389 9ebf f3b1 08c0 c415 a8be
00000180: 8bd2 52bf 9faa acbf c60f c7bf db40 0fc2
00000190: 3102 24c0 7ff0 c8bf 7a1b 9cbf 81ed 35bf
000001a0: 9690 13c0 5c57 15c0 9c88 87bf 8486 10bf
000001b0: 26db 87bf 5c0a d0c0 a27e 92bf 1cd7 c4bf
000001c0: 88ed 88bf 26af f5bf 9555 8fbf 7814 c9be
000001d0: c5ec 00c0 295a a3be b3d5 8a3c eaaa 3ebc
000001e0: c498 dabf 3e1b 94c1 d5fe 6fbe 230c e3be
000001f0: bd2e 8dbe bcf2 05c0 9d0b 5cbf a2fe edbf
00000200: 580a 23bf ad56 debf 07da 1bc0 f8ce 84be
00000210: bd43 f6bb 4595 fbbe 59a3 87bf b6c3 14bf
00000220: 1fab 88be 6311 6fbf fa20 ffbc 1bc4 68be
00000230: bd79 2abe f923 d7bf d67f 79c0 5b32 05c0
00000240: dc6b 11be 6eb8 11c0 4550 48bd 57eb 25c0
00000250: cf42 45c0 1ddb 0dc0 035b 8ebe 8f03 17c0
00000260: 5ca5 b2bf aa0d e4bf 9235 f5bf 6d12 2fbf
00000270: dcc1 87bf d2a2 84c0 649f 0dc0 37f2 86be
00000280: 55f5 44bf e73c 98bf 42d4 0ac0 9519 14bf
00000290: 4e02 03c0 bda9 6abf 691e 56bf 3aaa 1bbf
000002a0: e6f7 d5bf 43fe 19c0 2ad3 3dbf 0c2f 42bf
000002b0: 8223 95c0 d727 59bf e8a1 54bf c676 9cbf
000002c0: ae23 6dbf 3d57 85c0 2826 efbe 73bf f8be
000002d0: b18e 64c0 76c4 9cbe 820d 6c3e 117a d3bd
000002e0: c585 fcbf f788 03c0 9a5b 50c0 c072 a4be
000002f0: c719 d4bf 57c3 17c0 01b2 60be a776 e2bf
00000300: 8578 01bf c758 21bf 0134 4fc0 be36 80be
00000310: 89e3 423e 0478 cbbe 8518 55bf 13fd 88c2
00000320: b65c 84be 90d9 72bf 0003 473d 1249 68c0
00000330: 0b5d e3bd d251 d2bf ad59 83c0 92fc e3bf
00000340: 8199 c0be 74e4 80bf f63c 0b3e 71cc 0cc0
00000350: 9035 54c0 2813 64bf a50c 0bc0 e2b9 94bf
00000360: 4ea5 dcbf c7c8 c3bf cd4d 00bf c62f b63c
00000370: d0b1 91bf 216c 2cbf 8ff8 ffbf a187 b0be
00000380: 98cf 27bf 1e81 a9bf 56a9 5bc0 b755 1cc2
00000390: dced 3ac0 0d7c 97c0 17c4 e9bf 2324 b6bf
000003a0: 5800 abbf d247 d3bf dde6 abbf 4ce5 43bf
000003b0: 6dc8 2bbf 9c85 dcbe bacb a2be ee38 2abf
000003c0: cf62 e6bf 77df 5ac0 d367 56c0 d662 28be
000003d0: 5ec7 ecbf 1824 21be 0135 333e 8f2b 03be
000003e0: c7d0 dfbf 4df2 1fc0 9732 cabe 1b1f 9cbe
000003f0: da77 8fc2 17c0 b5bf 9702 173e daf7 30c0
-95.05208 -2.2605731 -2.5062869 -0.0667254 0.3428118 -0.4140337 -0.9938738 -117.42896
-0.018794673 -2.0572588 -0.10269504 -93.53001 -0.1344358 -2.6763933 -3.9197772 -2.4369252
0.00672466 -1.2818336 0.06036908 -3.7088969 -2.5742102 -4.06028 -1.3567736 -0.30873463
-1.7150067 -0.9255336 -1.0915246 -1.0216686 -0.9550509 -0.3848845 -1.0982356 -0.14532155
-0.94497615 -1.427245 -2.156862 -17.685995 -2.5397356 -1.150807 -1.3700945 -1.9069488
-1.6401235 -2.642484 -1.4561993 -1.6414635 -1.2260631 -1.6871583 -0.93302613 -2.393669
-0.3959531 -121.51461 -1.447082 -0.4905136 -1.2086431 -0.24656148 0.0676592 0.094313584
-2.808116 -1.3935976 0.07284401 -0.35244474 -62.50302 -1.5550582 -1.4734609 -1.6314485
-9.8496065 -207.51913 -2.4999704 0.28076428 -0.5526884 -0.27466252 -1.0030956 -95.38264
-0.2422379 -1.0186425 0.17911176 -49.505924 0.08567165 -1.8472784 -3.6190052 -1.7985821
0.22737788 -1.7623109 -0.03215511 -2.633837 -3.113681 -1.1784257 -0.5460336 -0.77521896
-1.687851 -0.97746056 -1.0955747 -0.67959726 -0.8924993 -1.2385563 -2.1358612 -0.32829106
-0.82352513 -1.348957 -1.5551689 -35.813335 -2.5626338 -1.5698394 -1.2195885 -0.7106553
-2.3056998 -2.333457 -1.0588565 -0.56455255 -1.0613754 -6.5012646 -1.1444895 -1.5378146
-1.0697489 -1.9194076 -1.1197993 -0.3927343 -2.0144513 -0.31904724 0.016947603 -0.011637429
-1.707787 -18.513302 -0.23437054 -0.44345197 -0.2757472 -2.0929403 -0.8595522 -1.8593333
-0.6368766 -1.7370201 -2.4351823 -0.25939155 -0.0075153993 -0.4913732 -1.0596725 -0.5811113
-0.26693055 -0.93385905 -0.031143654 -0.22731058 -0.16648002 -1.6807853 -3.8984275 -2.0811985
-0.14201301 -2.2768817 -0.048904676 -2.592489 -3.0822027 -2.2164986 -0.2780381 -2.3595922
-1.3956714 -1.781667 -1.9156973 -0.6838749 -1.0606036 -4.1448755 -2.2128534 -0.2635667
-0.76936847 -1.1893586 -2.1692052 -0.57851535 -2.0470157 -0.9166525 -0.8364015 -0.6080662
-1.6716278 -2.406144 -0.74150336 -0.7585304 -4.6605844 -0.84826416 -0.8305955 -1.2223747
-0.9263257 -4.166899 -0.46708798 -0.48583564 -3.5712092 -0.30618638 0.23052028 -0.10326017
-1.9728323 -2.0552347 -3.255591 -0.32118797 -1.6570367 -2.3712976 -0.21942903 -1.769246
-0.50574523 -0.6302609 -3.237549 -0.25041765 0.1903211 -0.39740002 -0.8324054 -68.494286
-0.25851983 -0.94863224 0.048586845 -3.6294599 -0.11101731 -1.643122 -4.1046968 -1.7811453
-0.37617114 -1.0069718 0.13597474 -2.199978 -3.3157692 -0.8909173 -2.1726468 -1.1619227
-1.7237947 -1.5295647 -0.50118715 0.022239577 -1.1382389 -0.6735249 -1.9997729 -0.34478477
-0.6555114 -1.3242528 -3.4322104 -39.083706 -2.9207678 -4.733893 -1.8262967 -1.4229778
-1.335948 -1.6506293 -1.3429829 -0.76521754 -0.671027 -0.43070686 -0.31796056 -0.6649312
-1.7998904 -3.4198892 -3.350087 -0.16443953 -1.8498342 -0.15736425 0.17500688 -0.12809585
-1.7485589 -2.4991639 -0.39491722 -0.30492482 -71.734085 -1.4199246 0.14747082 -2.7651277

bias f4 [60]
00000000: 40b1 b63f 184d c83f d9f4 e23f 644a 783f
00000010: d8df 2c3f 5a8c 6040 c7de 3d40 5465 82c0
00000020: 80cf 63c0 e475 e03f 37d4 db3f 646f b53e
00000030: 42ed a4be 0443 b4bf eb90 c33f 0d40 2340
00000040: 1d08 c9bf 8047 253f e08c 30c0 734d 9ec0
00000050: 2c87 5c3f e90b 1740 f975 e8bf e594 3c40
00000060: df36 c2bd 940c 93bd a121 12c0 9701 c4bf
00000070: 2ef2 483f d4ac cdbf cb91 d8bf 9771 263e
00000080: f59b 43c0 b7c0 c03f c585 e03e 7106 8bbe
00000090: 7679 b23f 0fce 4d3f 1612 0bc0 49b4 90bf
000000a0: f03e 0fc0 7f33 813f 9ee9 873e 1393 b8c0
000000b0: 8c84 aec0 2b30 a23f c112 1d3e dbaf d6bf
000000c0: 5923 bb3e 7fb4 4e3e bdf1 1340 2526 1b3f
000000d0: 580d 87bd 96de 70bf d3cd babf d0fa 2bc0
000000e0: ce37 9fc0 efa4 b6bf f3c6 cc3d 73f4 e3c0
1.4272842 1.5648527 1.7730972 0.9698851 0.6752906 3.5085664 2.9667222 -4.074869
-3.5595398 1.7535977 1.7174138 0.35436547 -0.32212263 -1.4082952 1.52786 2.5507843
-1.5705601 0.64562225 -2.7585983 -4.9469543 0.86143756 2.360102 -1.8161002 2.9465878
-0.09483122 -0.071801335 -2.2833025 -1.5312985 0.78494537 -1.6068368 -1.6919492 0.16254269
-3.0563939 1.5058812 0.43852058 -0.27153352 1.3943317 0.80392545 -2.1729789 -1.1305019
-2.2382164 1.009384 0.26545423 -5.7679534 -5.45368 1.267095 0.15339185 -1.6772417
0.36550406 0.20186041 2.3116295 0.6060508 -0.06594342 -0.9408964 -1.4594063 -2.6871834
-4.975562 -1.4269084 0.09998884 -7.12359
